frozen_lake_dqn_model-pri.pth (torch, 203068 bytes, 6 tensors)

fc1.weight f4 [256, 64]
00000000: 08c8 50bd a0ad 873b 084a 7ebd 769c c13c
00000010: 4820 dabd 4537 ec3d 3412 babd de87 cbbd
00000020: 5ac3 a1bd 9e0a b23c 142e 3dbd e837 663c
00000030: 5446 d9bd 3e52 9bbd 80fe 3bbd 783c c9bc
00000040: 044b c3bd 74fd 103d b87d f1bc 8058 243d
00000050: d4c2 fc3d 785a 713c bfbb 1e3d 321b f73d
00000060: b4ea 66bd 9298 ff3c 0ccc 63bd 2b89 013e
00000070: 6412 043e 6006 ecbd b0c6 da3d e1f5 b13d
00000080: 2797 db3c 96e7 5d3d c476 dd3d 6035 87bc
00000090: b27f d8bd f8ea 12bd 584b b4bd f062 073c
000000a0: 4030 bfbc 8650 89bd 0035 3abc 0e89 f23d
000000b0: 7089 21bc 600c 823b 20b4 9fbc e0fa a03c
000000c0: d51c 113e cc8a 9c3d 84bd 353d a886 de3c
000000d0: b073 f13c 78cd 453d 2853 84bc bced edbd
000000e0: 3e50 9ebd 5f84 333e 00d5 f43b fa60 cfbd
000000f0: 5083 a13c 8a86 d33d 80eb f1bd 6a59 acbd
00000100: ddef 6cbd fe3f 1abd ddaa 14bd 9a54 1cbd
00000110: 6692 f9bd 32ce 233d ecef f33d 3653 c13d
00000120: 2a48 b5bd ca5c cebd a322 6eba 7780 fe3a
00000130: 8152 143d 9826 fabd c5b8 b9bb da8a b43d
00000140: 0d97 b93c d90e e5bc 3ea7 683d a0e7 41bc
00000150: e4c1 8cbd 4eb1 a8bc 18e6 9bbd cea2 d43d
00000160: a937 3d3c 4b51 383d 7250 c4bd 1ca6 0c3e
00000170: b34e 0b3d 7419 b13d c634 6bbd d98d 573d
00000180: 8a92 a63d 385a b63d ae2f 6f3d 4006 d7bc
00000190: 3a81 073e e881 c8bd 2021 313c 5e24 90bd
000001a0: 1e36 debb 341f 03bd c03a 193c eafe e83d
000001b0: f733 fa3c 0909 d7bb 70b8 b53d 4a30 83bd
000001c0: 101f b4bb a0ea 3dbc e82f b2bc 30c4 6f3c
000001d0: ea1e c4bd 50a9 6c3c 6427 2c3d cedc da3d
000001e0: a8be 72bd 1792 c03d 725b 1e3e d4a1 5bbd
000001f0: 065a f33d 3434 7ebd e0af 613d 7893 483d
00000200: 1804 0f3d a393 d63d a4ee 4ebd 3890 063d
00000210: 00e6 373a 5a8c c0bd 38a4 f8bc 74f6 aabd
00000220: 61bc 493d 601b 383c b0a1 483c 6853 1bbd
00000230: 0091 1d3a 0c41 1fbd b81d 133d 949e f83d
00000240: 181b 9b3c 30c6 62bd 3a5f 9cbd 108c 1c3c
00000250: a2e9 bdbd 266c c0bd e09f a6bd ece5 2dbd
00000260: 8096 173c 3c39 873d 5851 463d 690f 8c3d
00000270: e2bd a0bd b0d3 2c3c b08d e3bd 584c 833d
00000280: 6869 d53c e23b b93d 0012 b6bd 464b cd3d
00000290: d58b 8f3d 02f7 8b3d 981e 923c 88c6 e83d
000002a0: 807d 823d 0eff be3d 300a 05bc 3474 c4bd
000002b0: 00e2 cbba 080a c03c 1861 aebd 04da 92bd
000002c0: 6870 f5bd f47a 33bd 58fe de3d 9819 af3c
000002d0: 202f fabb c07c a43b b0a0 9f3d 7410 e2bd
000002e0: e686 c5bd 9039 2abd 2855 93bd 7e0a 843d
000002f0: a8e2 b43d b860 f8bd 1243 d9bd 204c f9bd
00000300: 8027 413d 45b0 d83d b07c c6bd a008 6dbd
00000310: d0ed 223d 0c2a a7bd 1d03 da3d d0c1 ee3c
00000320: 4c88 0ebd d004 053c 20a0 1f3d c80c 35bd
00000330: f45c c6bd 0041 5c3a 8037 153b 8031 253b
00000340: c06e 95bc 6269 983d d8e0 0ebd 403b 46bc
00000350: 3087 523d ce22 a1bd a817 093d 286c e2bc
00000360: c497 753d f2de 8abd a061 973b c05a 483c
00000370: 0afa cdbd fe25 babd dc5b 443d 5c05 15bd
00000380: 9c09 983d 90e4 fcbd a418 7dbd 82db d2bd
00000390: 8487 4c3d 407f 6dbb 78ff bebc 405d aabc
000003a0: 241a c8bd 5c33 113d 4031 4c3b 3eab b0bd
000003b0: c8a8 403d c0a6 24bb fc96 f7bd 24b5 893d
000003c0: 5cee 883d 98ee c0bc 8ec0 b0bd 6074 a43b
000003d0: 242c c13d b653 ea3d a43a c1bd 2841 67bd
000003e0: 24cf 9c3d 2441 7a3d a277 9e3d 08d7 7ebd
000003f0: 868d dc3d ea72 d2bd c04c c5bb 0017 2a3b
-0.050972015 0.0041405708 -0.06208232 0.023634177 -0.106506884 0.11533979 -0.09085503 -0.09938024
-0.078985885 0.021733578 -0.04618652 0.014051415 -0.10609117 -0.07584046 -0.045897007 -0.024564967
-0.095357925 0.03539796 -0.029478893 0.040123463 0.12341848 0.014731042 0.038753267 0.12065734
-0.056376174 0.03120068 -0.055614516 0.12649982 0.1289764 -0.115246534 0.10682428 0.08689476
0.026805473 0.054175936 0.10813668 -0.016504943 -0.10571231 -0.035868615 -0.08803433 0.008263335
-0.023338437 -0.06704812 -0.011365175 0.11842547 -0.009859428 0.0039687604 -0.01949507 0.019650877
0.14171155 0.07643661 0.04437019 0.027163818 0.02947411 0.048291653 -0.016152933 -0.1161761
-0.07730149 0.17530964 0.0074716806 -0.10125919 0.019715935 0.10328396 -0.11812496 -0.08415492
-0.05784594 -0.037658684 -0.03629576 -0.03816662 -0.121861264 0.039991565 0.11910996 0.09439699
-0.08851655 -0.10076292 -0.0009084141 0.0019416948 0.036211494 -0.122143924 -0.005667778 0.08815546
0.022655034 -0.027961181 0.05680012 -0.011835009 -0.06872919 -0.020592358 -0.07612246 0.10382615
0.011548915 0.044999402 -0.09585656 0.1373524 0.0340106 0.08647433 -0.057423376 0.05262551
0.08133419 0.089039266 0.05839508 -0.026248097 0.1323289 -0.09790403 0.01081112 -0.070381865
-0.0067813536 -0.03201218 0.009352386 0.11376746 0.030542357 -0.0065623564 0.08873069 -0.06405695
-0.005496867 -0.0115915835 -0.02175136 0.014634177 -0.09576209 0.014444664 0.042029753 0.106866464
-0.059263855 0.094028644 0.15464571 -0.05362113 0.11882405 -0.062061504 0.055099368 0.048968762
0.034916013 0.10477378 -0.050520554 0.03285238 0.00070151687 -0.0940177 -0.030351743 -0.083477885
0.049251918 0.011236995 0.012245581 -0.03792134 0.00060106814 -0.038880393 0.035917014 0.121396214
0.018933818 -0.055364788 -0.076353505 0.009554878 -0.092730775 -0.09395628 -0.081359625 -0.0424556
0.009252191 0.066027135 0.04841742 0.06838877 -0.07848717 0.010548517 -0.11111009 0.06411046
0.026051238 0.09044625 -0.08890152 0.10024123 0.07009093 0.068342224 0.017836854 0.11365992
0.063715935 0.093259916 -0.008120105 -0.095924765 -0.0015555024 0.023442283 -0.08514613 -0.071704894
-0.119843304 -0.04381843 0.10888356 0.021374509 -0.0076350123 0.005019754 0.077943206 -0.110382944
-0.096448705 -0.041558802 -0.07193977 0.06447314 0.08832294 -0.12127823 -0.10608496 -0.12172723
0.04715681 0.10580496 -0.09691751 -0.057869554 0.039777577 -0.08162317 0.10645125 0.029145151
-0.03479795 0.008118823 0.038971066 -0.044201642 -0.09685698 0.000840202 0.0022768676 0.0025206506
-0.018241286 0.07441975 -0.034882396 -0.012099087 0.051398456 -0.078679666 0.033469826 -0.027639464
0.059959188 -0.06780805 0.004619792 0.012228668 -0.10057457 -0.09089278 0.047939166 -0.036382064
0.07423708 -0.12348282 -0.061791077 -0.10295774 0.049933925 -0.0036239177 -0.023315176 -0.020796418
-0.09770611 0.03544937 0.0031157285 -0.08626412 0.047035962 -0.0025123805 -0.12089345 0.06724003
0.066860884 -0.02355127 -0.08630477 0.005018756 0.09432247 0.11441748 -0.09435013 -0.056458622
0.076566964 0.06109728 0.07737662 -0.06221679 0.10769181 -0.10275824 -0.006021112 0.002595365

fc1.bias f4 [256]
00000000: 8c9f 6dbd 8154 d0bb 2380 dcbd 79f8 dcbd
00000010: f072 bebd 5250 eebd c5b5 97bd 8ba9 64bd
00000020: af2e 83bd 39e3 6abd 90da 8d3d b467 b0bd
00000030: 2e84 c0bd b2f9 a3bd 24f5 4d3d 38c8 dbbd
00000040: 6d02 fdbd 32aa 6e3d c3c6 39bd 0c2d b13d
00000050: 96d0 3bbd 008f fabd 428d 73bd 3448 83bd
00000060: bac9 b8bd e1fb 01be a981 babd b721 b2bd
00000070: ee83 4cbd 872d d0bd 18e6 adbd d232 d3bd
00000080: ecaf a73d e856 52bb 5f27 e0bc 13d2 813b
00000090: 3c68 efbd 0618 d4bd abe3 91bd 5c07 e3bd
000000a0: 62d3 d1bc 04d4 3dbd 7cb1 92bd 4f04 cfbd
000000b0: b81e c63d 3f44 563d 9cd7 883c 94ba f7bd
000000c0: a562 f9bd dcc3 febd 07d2 8f3c 1b81 793d
000000d0: 2bac 1a3d 9b6e 3a3d 296f cb3c b203 02bd
000000e0: 73ff cdbd 4650 84bd 80c6 e9bd e12e b6bd
000000f0: 5be1 7d3d cefb edbd 9b3a 1b3d e81f 97bd
00000100: 4b3a 89bd 450e ccbd abf3 40bc 1ef2 05bd
00000110: 111c f03b cba4 443d 59c7 d7bd 4afc 233d
00000120: 60ba 873c e0b3 7a3b 0dc3 d0bd 8b33 813c
00000130: f264 e2bd b898 afbd 5659 c2bd d610 94bc
00000140: 83e3 1fbb d18f 2e3d d1f2 a93c 4c6e 383d
00000150: 6de7 03bd 243d 8c3c 1059 51bd c876 f1bc
00000160: db1d d5bd c9da d0bd 458c 263d fd0c 183d
00000170: 40f1 97bd 0dfe b13c 8247 8b3c 3581 01bc
00000180: 35fd ffbd f220 8cbd 97e3 efbd 44a7 433d
00000190: 1937 e8bd 1e77 25bd 82bf 78bb d36f 42bd
000001a0: 4f95 f6bc 8a70 c7bd 0a91 87bb dff4 78bc
000001b0: 21b2 063d 56ff 993c eba5 91bd e3f0 90bc
000001c0: 2b0a 1e3d 7c61 b13a 4a5d b3bd 0faf 413d
000001d0: f6c6 503d da39 0ebd f260 ebbd 4b5f e33c
000001e0: 3311 10bd 5ad7 b5bd 41e5 89bd 53fd b93c
000001f0: b72f 213d b46d 013d 16f7 e3bd 5ab9 483d
00000200: 713b 26bc 0533 8bbc 4e06 ad3c 5a13 bcbd
00000210: d73d b8bc 0ce4 fcbd 5291 ac3d a277 f2bb
00000220: 85b1 d13b 111f f73b 0ae1 c6bd 0cc4 f8bd
00000230: 851a 8abd 5e9f ffbd de82 8e3c e227 f83c
00000240: 7cd0 4cbd 1358 eebc 8d54 fcbd a52a 833d
00000250: ad91 91bc 542c 833d f07a 5bbc 5c9f e1bd
00000260: 9c42 6bbd fffd dbbd 2dcf 8dbd ba85 cdbb
00000270: 96cf ccbd 8576 fabd f832 98bd a93f 4bbd
00000280: c6b9 173d 7311 d4bc e9e1 973d 603c b8bd
00000290: 5c8f 8b3d 6a21 f4bd faf9 3dbd 8667 093d
000002a0: 10d5 fdbd 8c06 ca3d ef58 9ebd 0899 d43c
000002b0: ff98 b2bd ec68 3bbd 4be8 29bb 430a 66bc
000002c0: 3a3b 893d 1287 94bd 9d1b d13d 1cf2 dfbd
000002d0: 0252 a3bd 9010 bf3d 1a70 53bd 1f1f f5bd
000002e0: c2fa cbbc 1476 fdbd 0942 0abd 62bc 353d
000002f0: 182d b93c 6985 af3c 04e4 1a3d da0a 4bbd
00000300: 01e3 f2bd cfb4 afbd c939 cabc 215d cd3b
00000310: 3716 fa3c d86f c7bd 1d71 5b3d fd4b cb3c
00000320: 9e29 1f3d e5b2 be3d fc4c 80bb f32f 81bd
00000330: 5f50 d8bd 4a73 083d f336 693d 2cec a0bc
00000340: ed9a a0bd ab6c e6bd 75dc 3fbc d353 57bd
00000350: 376d b63c 44dd e5ba 9d27 8a3c f275 d4bd
00000360: 3d89 ddbd 2fab debd a1d9 b13c f31e 8a3c
00000370: e245 8d3d 269e adbd 4a6d 88bd 5288 593d
00000380: c942 9ebd cc2d af3c 0b39 33bd bec8 13bd
00000390: fc20 403d 9639 9b3d e414 713b 0a65 fcbd
000003a0: 793c 6c3d 97e3 b8bd 5438 fdbd bc3a 7c3d
000003b0: ea4f a5bd 7cc4 3b3d 211c 6b3d 457c 3a3d
000003c0: 924a 573c f761 8dbb 15b3 06be 367b 74bd
000003d0: f7fb 3dbc 7e4a 4bbd 5660 953b e128 683c
000003e0: bc1e a1bd 3bdc a3bb d904 c4bd a1bf f3bc
000003f0: baed 05bd 3f23 92bd 3e9e 463d 9aa3 efbd
-0.058013484 -0.00635773 -0.10766628 -0.1078958 -0.09299266 -0.11636414 -0.07407717 -0.05582575
-0.064053886 -0.057345603 0.06926453 -0.0861353 -0.09400211 -0.0800661 0.050282612 -0.10731548
-0.12353978 0.05826778 -0.04535557 0.0865117 -0.04585322 -0.12234306 -0.059460886 -0.06410256
-0.09022851 -0.1269374 -0.09106762 -0.08697837 -0.049930505 -0.10164934 -0.084911525 -0.103124276
0.08187851 -0.0032095257 -0.027362524 0.0039618104 -0.11689803 -0.103561446 -0.07123502 -0.11085388
-0.02561349 -0.046344772 -0.07162759 -0.10108244 0.09673828 0.05231118 0.016704373 -0.12096134
-0.12177018 -0.12439701 0.017556204 0.06091414 0.03776185 0.045515638 0.024833279 -0.031741805
-0.10058489 -0.064606234 -0.11414814 -0.0889566 0.061982494 -0.116202936 0.037897687 -0.073791325
-0.067005716 -0.09963659 -0.011776845 -0.032701604 0.0073275645 0.04800872 -0.105360694 0.040035523
0.016568363 0.0038254187 -0.10193453 0.015771648 -0.1105441 -0.08574051 -0.09489696 -0.018074434
-0.0024397082 0.042617623 0.020745667 0.045027062 -0.032203127 0.017118998 -0.051110327 -0.029475585
-0.10406085 -0.1019798 0.040661115 0.03712176 -0.07419062 0.021727586 0.017001871 -0.0079043405
-0.12499467 -0.06842221 -0.11713331 0.04776694 -0.11338634 -0.040396802 -0.0037955944 -0.047469925
-0.030100493 -0.09738262 -0.004137163 -0.015195101 0.03288472 0.018798511 -0.071117245 -0.017692989
0.038583916 0.0013533081 -0.08758028 0.04728609 0.050970994 -0.03472314 -0.114931 0.0277554
-0.035172652 -0.08878966 -0.0673318 0.022703802 0.039352145 0.03159876 -0.11131112 0.04900489
-0.010146008 -0.016992101 0.02112117 -0.091833785 -0.022490425 -0.12348184 0.08426155 -0.0073995152
0.006399336 0.007541545 -0.097108915 -0.12146768 -0.067433394 -0.12481569 0.017396387 0.030292455
-0.050003514 -0.029094731 -0.12320814 0.06404618 -0.017769659 0.06404939 -0.01339601 -0.110167235
-0.05743657 -0.10741805 -0.06924281 -0.006272045 -0.100005314 -0.12229637 -0.074315965 -0.049621258
0.0370424 -0.025887227 0.07416136 -0.089958906 0.06814453 -0.11920436 -0.046380974 0.033545993
-0.12394154 0.0986453 -0.077318065 0.025951877 -0.08720588 -0.04575436 -0.002592581 -0.0140405325
0.0670075 -0.07252325 0.10210345 -0.109348506 -0.07974626 0.09329331 -0.05162058 -0.119688265
-0.024899844 -0.12376037 -0.033754382 0.04436911 0.02260451 0.02142592 0.03781511 -0.049570896
-0.11859704 -0.085794084 -0.024685757 0.0062672053 0.030528171 -0.097381294 0.05357467 0.024816507
0.03885805 0.09311465 -0.0039154273 -0.06307974 -0.105622046 0.033313073 0.05693717 -0.019643866
-0.0784205 -0.112511955 -0.011710276 -0.052570175 0.022268875 -0.0017537256 0.016864592 -0.10374059
-0.10817192 -0.108724944 0.021710219 0.01686046 0.06898095 -0.0847743 -0.0666147 0.05310852
-0.07727582 0.021384142 -0.043755572 -0.036080115 0.046906456 0.07579343 0.0036786133 -0.12323959
0.05767486 -0.09027784 -0.12364259 0.06157945 -0.08071883 0.04584168 0.057399873 0.04552867
0.013140338 -0.004314657 -0.13154252 -0.059687816 -0.011595718 -0.04963159 0.0045586033 0.014169903
-0.0786719 -0.0050006188 -0.09571237 -0.029754462 -0.032697417 -0.07135629 0.048490755 -0.117011264

fc2.weight f4 [128, 256]
00000000: 83dd 9b3d e38c 5fbd ae0c 2abd 225b 163d
00000010: 747c 74bc 4cb1 bcbc ae53 e2bc 4dff b83c
00000020: adc2 b73d 6f7a 273d 74ea f8bc c700 81bd
00000030: 22ce 923d c6aa 913c e323 48bd 65ff 74bd
00000040: c66a 0cbc 28e3 e4bb 8091 1f3d 181a d0bc
00000050: 48dd 74bc c0b9 2bbb 43c9 b93d c520 bf3c
00000060: 91bf cd3c 67a1 4bbd 01cf 0f3d cf2e cabc
00000070: b1e9 023d e016 4a3d 85e8 c5bc 99d9 1f3c
00000080: 003e 873b f45a 41bc 9ed9 23bd 7292 213c
00000090: cb19 cbbc 205c f13c 612e f438 6a8d a03c
000000a0: 261c 983d 60e8 f0bb 25e1 203d f378 f23b
000000b0: a8b0 c2bc 2301 3f3d bd7a f63c 366d 01bd
000000c0: 5fb6 233d 3e0b 403d 1ea0 77bc 8183 083d
000000d0: 2e5b 8cbb ae77 0dbc 0945 7f3d 87dd 7cbd
000000e0: 261b 23bd 8c9c 8e3d 6667 173b 557e ccbb
000000f0: 7aa4 593b ce37 153d bc8e 52bc 486f 86bb
00000100: 0af0 e13b a755 a23c 86be b5bc 6d0a 8f3d
00000110: 4f8c a83c ad8c 133d 4ace 143c 751a e1bc
00000120: c5db 2a3d a849 0ebd feed 1a3d c831 463d
00000130: 46dc 363b 9dbc 52bd 95b6 fbbc 5d34 353b
00000140: 9a5c 1abc e56d e2bc 461c 85bc 98c2 d5bc
00000150: bb36 ef3c 5d14 5fbd 08e3 f5bc 17ad ab3c
00000160: a82a dc3c df05 e33c 9594 32bc 50b0 743d
00000170: 98e7 40bd 3e71 3ebd 5cbc 263b 5259 bb3c
00000180: d932 013c 7a95 df3c 0970 413d 9619 023d
00000190: 9847 5a3b 1472 2dbd 6c3b 973d 26c8 0abd
000001a0: 03c0 d43c 1218 023a 7dd1 f2bc 6760 153d
000001b0: f701 89bd 0eff 32bd e42e 243d ae20 ee3d
000001c0: 59b5 65bc b44e 7f3d 6ba8 bb3c 6346 41bc
000001d0: d987 66bc 83db 29bd b15a 143c 8325 22bd
000001e0: 3545 b13d 9038 1abd 696b 81bc 4018 80bd
000001f0: ea21 15bc 8ea0 ee3c 7c6b 943c 4486 3d3d
00000200: 75aa 92bb 1545 46bc dd7c 863c ac4b dabc
00000210: 5969 4c3d 4432 a4bc 8e07 e0bc 77fd 53bc
00000220: 8fb5 c23b 8556 2c3d 8357 8a3a a845 b33c
00000230: aa4b 60bd 62df c93b 7139 993c 3533 853d
00000240: 9b57 41bc 88b4 87bc ad25 4cbd e896 47bd
00000250: f74a 2bbc 8411 c13c 45fe 14bd 5249 bc3c
00000260: 8a48 b43c 7829 7d3d b91f 623d fa9a 56bb
00000270: 3881 393c 21b8 e13c dd6e 043d 5b94 aabc
00000280: 0dcd fb3c a907 b0bd a755 643d fbad 0c3d
00000290: 9fd6 b13c b7e1 d2bc c400 68bc ed6e 5dbd
000002a0: dcd0 ac3c b969 01bc 4ef0 49bc 63f9 7e3d
000002b0: 2f63 1d3d 242a d0bb 2c4b 27bd 8f84 06bd
000002c0: 4239 9cbd 36cc 4bbd 7096 083c 53fe 7d3d
000002d0: 6f09 34bd 7c61 85bc 1ee4 0f3c 2b38 e93b
000002e0: dbc0 f33a fc51 5bbd 1c36 9e3c 34b7 2cbd
000002f0: 32c4 9d3d 9647 4c3d 6349 a6ba 5c7f 193d
00000300: 94d9 f63c 985f 623d 5c97 823d 7cec a03b
00000310: a7b1 76bd 636f c73c 8947 073d 4046 1d3d
00000320: 64fc e8bc 73c3 9abc bd05 47bd 7324 89bd
00000330: fd7a 70bc 285f 633d 4ffe efbc c5cc 51bd
00000340: 23eb 783c 3722 29bd 83d0 c73d c60c 863c
00000350: 3f8d 763d 7322 91bd 3efd 0c3d eb41 fcbc
00000360: 4454 983c 71ea 35bd 76fa 54bb cdb3 9c3d
00000370: a7e1 8b3d 6400 b8bb 4821 103d d29d 103d
00000380: d212 9e3d 8af2 a1bc c132 0fbd 8f29 2abc
00000390: e5fe 163d cb9d a43c e24d 69bd b07d 85bc
000003a0: fe3d ca3c cc8b 28bb 3470 aebc cc40 113d
000003b0: 62fa 40bb 5400 9d3d a334 813d 2786 89bd
000003c0: 6aac a63c 27a5 fcbb c450 343d 4628 02bc
000003d0: 09a7 8d3c 30a7 883c 00bd 6f3c 7e9e f13c
000003e0: d803 8f3d 7d7b 383d 52b2 0d3c 74f6 d5bc
000003f0: 1e75 8f3d b870 cfbc 33ab 5a3d e2f2 4cbd
0.076106094 -0.05457772 -0.041516 0.036708005 -0.01492225 -0.02303376 -0.027627792 0.022582674
0.08972678 0.040888246 -0.030385233 -0.062989764 0.07168223 0.017781626 -0.04886235 -0.059813876
-0.008570379 -0.006985087 0.03895712 -0.025403067 -0.014945336 -0.0026203245 0.09071591 0.023331055
0.02511576 -0.049714472 0.035109524 -0.024680523 0.031961147 0.04933822 -0.024158726 0.009756469
0.004127264 -0.01180147 -0.040002458 0.009861575 -0.024792572 0.029462874 0.000116434654 0.019598681
0.07427244 -0.00735192 0.039277215 0.007399672 -0.023765877 0.046631943 0.030087823 -0.031598292
0.039968845 0.04688572 -0.0151138585 0.033328537 -0.0042833304 -0.008634491 0.062321696 -0.061734702
-0.039820813 0.06963453 0.0023102402 -0.006240646 0.0033209608 0.036430173 -0.012851413 -0.004102621
0.00689507 0.019816233 -0.022185575 0.069844104 0.020574717 0.03602283 0.009082386 -0.027478436
0.041713495 -0.034738213 0.037824623 0.04838732 0.002790229 -0.051449407 -0.03072671 0.002764962
-0.009421492 -0.027640292 -0.016248833 -0.026093766 0.029200902 -0.05446278 -0.030015483 0.02095656
0.026875809 0.02771276 -0.0108996825 0.059738457 -0.047095865 -0.046494715 0.002544186 0.02286974
0.007885658 0.027292956 0.047225986 0.031762682 0.0033306833 -0.04234512 0.07384381 -0.033882283
0.025970465 0.0004962693 -0.029640907 0.03646889 -0.06689828 -0.04370027 0.04008378 0.11627327
-0.014020287 0.062330917 0.022907456 -0.011796567 -0.014070475 -0.04146911 0.009054826 -0.039586555
0.08655778 -0.0376516 -0.015798287 -0.06254625 -0.009102324 0.029129293 0.018117659 0.046270624
-0.0044758865 -0.012101431 0.016416961 -0.026647411 0.049905155 -0.0200435 -0.027347352 -0.012938849
0.0059420536 0.0420747 0.0010554645 0.0218838 -0.05475966 0.0061606625 0.018704148 0.065039076
-0.011800672 -0.016565576 -0.049840618 -0.0487279 -0.010454885 0.023567922 -0.036375303 0.02298418
0.022007246 0.061807126 0.055206034 -0.0032746182 0.011322312 0.02755362 0.03233229 -0.020822695
0.030737424 -0.08595211 0.055745747 0.03434561 0.021708785 -0.025742395 -0.014160339 -0.054060865
0.021095686 -0.007898741 -0.0123253595 0.062249552 0.038424667 -0.00635268 -0.040843174 -0.03284126
-0.076281086 -0.049755298 0.008336648 0.06201012 -0.04395431 -0.016281836 0.008782415 0.0071172914
0.0018596904 -0.053544983 0.01931291 -0.042166904 0.07703437 0.049872957 -0.0012686666 0.037474975
0.030133046 0.055266947 0.06376526 0.0049110036 -0.060228016 0.024345106 0.033027206 0.038397074
-0.028440662 -0.018892026 -0.048589457 -0.06696405 -0.01467776 0.05551067 -0.029296068 -0.051220674
0.01519278 -0.041292395 0.09756567 0.016363513 0.060193297 -0.07086649 0.034421198 -0.03079315
0.018594868 -0.044413034 -0.003249792 0.07651482 0.06830149 -0.005615281 0.03518799 0.03530676
0.077184334 -0.019768972 -0.034960512 -0.010385885 0.03686418 0.020094773 -0.05695904 -0.016295284
0.024687763 -0.002571809 -0.021293737 0.035462186 -0.0029446115 0.07666078 0.06308868 -0.06715041
0.020345885 -0.0077101174 0.044022337 -0.007944172 0.017291563 0.016681284 0.014632463 0.02949452
0.06983155 0.045039643 0.008648472 -0.026118495 0.0700476 -0.025322303 0.053385925 -0.05003632

fc2.bias f4 [128]
00000000: cd1c a13c 5790 b73b 2629 76bd 38ff aebc
00000010: a749 14bc 1467 66bd 345d 623d 6bea 8a3c
00000020: 7080 253d 6d94 88bb f797 cb3a 440f d5bc
00000030: 6534 a03d 16ff b9bd befa 75bd df92 abbc
00000040: aad0 2a3d ed25 833c f7b5 3a3d ea31 17bc
00000050: 72c5 babc 596c 1bbd 1e62 26bc 4e86 42bd
00000060: 4dbc b1bc 3ef6 eb3c f7fc c3bb 48fd 0f3d
00000070: 87c8 11bd 66be 533d 6a5c 62bd 1caa 80bd
00000080: f36a 77bd 4c82 4cbd ee5c 1dbd f1e8 0fbd
00000090: 3e70 973d d454 8dbd 11a5 1abd 410e 9d3b
000000a0: 04fb f2bc dc37 063c 8099 003d ff0e 5b3c
000000b0: 8fd6 e5bc ad66 143d e00b 8bbc 8e4f 0cbd
000000c0: 735a ee3c b265 b43c f256 003c 33f0 90bd
000000d0: f0f4 f2bc f825 a6b9 ca42 d6bb cd5d d5bc
000000e0: cada 6b3d 164b ceba 0211 4c3c 288c aabc
000000f0: 5b17 fd3b 1fc2 42bd f2f5 dfbc 653e 993d
00000100: a396 653d 684e abbc fb55 4a3c f573 7cbd
00000110: 477f 7abc 0698 72bd 04a6 edbb cc0a 45bd
00000120: b6c3 27bb ed9b 5bbb aeba 9dbc 598a 1bbd
00000130: 66df d9bb f24d 313b 3d7e b63c e106 27bd
00000140: 87d0 15bd ac58 50bd d548 563d 5aeb 593c
00000150: 2cbc a03b e545 913c 3d9a e3bb 68f8 79bd
00000160: edd1 453c 9cbd 97bc f2f4 f83c 2572 23bc
00000170: c5c4 913b acda 0b3d 9604 70bd 644a 693d
00000180: f62d 523c a37f 32bd f40c bfbc aa4b 7a3d
00000190: d118 4cbd 9445 ca3c 60e2 593c a3f7 c4bc
000001a0: e454 b1bb b7c0 093d aa07 1bbd 24e0 7cbd
000001b0: 96ed 923b 8869 39bc b8ec 5bbd 75b6 32bd
000001c0: eac5 81bd e08f 113d 5ddc 483b 61ce 5c3c
000001d0: 581a 33bd bc11 5bbd 0b09 c93b 0cb7 a33c
000001e0: 5d6f 643c f9cc 18bd 9415 ab3a 5ca9 66bd
000001f0: d3a4 2d3c 87c2 66bc 5321 75bc 25bf 0abd
0.019667054 0.0056019234 -0.060097836 -0.021361932 -0.009050763 -0.056250647 0.055264667 0.016957482
0.04040569 -0.0041680844 0.001553296 -0.026008256 0.078224935 -0.09081857 -0.06005358 -0.020944057
0.041702904 0.016009295 0.04558369 -0.009228209 -0.022799227 -0.037945125 -0.010155229 -0.047491364
-0.021696234 0.02880394 -0.0059810835 0.035153657 -0.03559163 0.05169525 -0.055263914 -0.06282446
-0.06040473 -0.04992895 -0.038418703 -0.03513426 0.073944554 -0.06900945 -0.037755076 0.004792959
-0.02966071 0.008192029 0.03139639 0.013370275 -0.028056411 0.03623073 -0.016973436 -0.034255557
0.029095864 0.022021148 0.007833229 -0.07077064 -0.02965781 -0.00031690276 -0.0065387236 -0.026045704
0.0575817 -0.001573893 0.012455227 -0.020818785 0.0077237315 -0.04754841 -0.027338956 0.07482604
0.05605186 -0.02091141 0.012349601 -0.061634023 -0.015289134 -0.059227012 -0.0072524566 -0.048106
-0.002559883 -0.0033509687 -0.019254055 -0.037973735 -0.0066489456 0.0027054516 0.022276992 -0.040778045
-0.03657582 -0.050865814 0.05231555 0.013300741 0.0049052443 0.017733524 -0.006945877 -0.061027914
0.012073976 -0.01852303 0.030390237 -0.009975945 0.0044485056 0.03414409 -0.058598123 0.05695571
0.012828341 -0.043578755 -0.023321606 0.061107315 -0.049828354 0.02469138 0.013298601 -0.024043864
-0.005411731 0.033631053 -0.037849106 -0.061737195 0.004483889 -0.0113166645 -0.05369255 -0.043631036
-0.06336577 0.0355376 0.0030648925 0.013476939 -0.043726295 -0.05348371 0.006135111 0.019984744
0.013942567 -0.037304852 0.0013052695 -0.056313857 0.010598379 -0.014084465 -0.014961558 -0.033873696

fc4.weight f4 [4, 128]
00000000: 77f5 9abb 92f8 30bd 1891 89bd 4636 f23c
00000010: d29c 9cbd e6e6 c3bd 8e2a 0fbd 9854 383d
00000020: f617 9abc 9ef5 453d 424f 823d ce8e 603d
00000030: ce91 93bd ad71 2bbd 3045 b83d 4214 a73c
00000040: 7ad9 97bd 11e1 16bd b55c 84bd d835 76bd
00000050: 9f24 ccbd 418e 44bc 9dd6 c93b cafc 733d
00000060: 93ad a93d 81a0 85bd c925 00bd 1088 a4bd
00000070: 46c7 603d 794a 37bd 38db c7bc 9b73 283d
00000080: 6a37 ab3d 666f 003d 2d2c 3ebd f5ec 043c
00000090: 0b5c d2bc 7186 813d 3c5f f63c f0cd eb3c
000000a0: 37c5 2fbd c93d 243d 88cf 95bd 452f c0bc
000000b0: f8f9 923c f971 87bd 3db1 f83c fce7 d53c
000000c0: 9afb 953d bd38 7e3b ba56 d4bc 1e14 633d
000000d0: 8e17 6a3d f70c 4d3c 9dbc 6dbc 97f8 673c
000000e0: e267 8ebc 185b c8bc 3b61 1ebc c24f 37bd
000000f0: 1cd1 94bc e7d3 16bc cbc5 a93d 458d 9bbd
00000100: 847d 8abc 7c53 193d bb58 f139 e503 ba3c
00000110: a582 e53c e0fb 8cbd da85 543d 1d77 03bd
00000120: 2294 bc3c 0cb9 ab3d d0cb 493b bf96 5f3d
00000130: afba cc3c a9a4 efbc 0088 8e3b 7f13 7e3d
00000140: dbd8 a8bd 7a55 22bd acaf 373c 73ec 873c
00000150: d194 933d 3837 2dbd b1ef e03c 6536 37bd
00000160: 226d b7bc a5d0 953c 2bdc e53c c71a 9e3d
00000170: 8d11 b9bc cb35 89bc 3b3c 9a3d af3a 20bd
00000180: 0a7d d0bc ac4a 283d 28ec 80bd b6b0 eabc
00000190: c9c6 143d 83ee 1ebc e83a e23c d6c0 cc3c
000001a0: 9306 9cbd ff41 343d 40ea cb3b 6dea 883d
000001b0: b5ac 8fbb 945d b5bd 1964 84bd 0d4f 09bd
000001c0: 7539 abbc f30d 603b 5b2c a83c 96f2 5b3d
000001d0: 3e07 e0bc 8e92 90bd 3940 0d3e 4336 f4bc
000001e0: 0932 c43c 9539 2c3c c0e2 be39 8950 49bd
000001f0: d5a8 6f3b cf98 81bd 2cce 97bc b78b 6bbb
00000200: e0b6 2ebd 17ef b83c 0f6f 5fbd 7c80 f13b
00000210: 8f78 e63c c405 73bd b322 8fbc 7267 86bd
00000220: cb03 2fbd a609 06bd 861d 5abc 5497 4dbc
00000230: 4e4f 6dbd 41ea c2bd 5461 ec3b fe50 62bd
00000240: 84da 19bd 2d4d 5b3c bb32 06bd ba6c d03d
00000250: b55b 8bbd 8a19 5b3d 4440 b53d 30cd f53b
00000260: 97f4 b7bc e0c2 40bd ef05 413d d0a4 08bb
00000270: 110c 7fbd 8c7d b3bc 0b4a aabd 97c8 223d
00000280: d3ce 543d 4988 22bd 792f 843d c18e 06bd
00000290: 5f03 5ebd 43b1 433d e63a 1c3d 9d27 18bb
000002a0: 1ae6 1c3c 65c1 af3a 70f4 3cbc 9819 54bc
000002b0: 46f5 693d 7d91 cfbc df1a a4bd d474 52bb
000002c0: aa50 173a b04f 1abd a806 13bd 46b5 363d
000002d0: a7d2 20bd fe97 813d e72c cf3b 4668 66bd
000002e0: 7c46 0cbd 2816 a93c 103b a83b 0d3f aabd
000002f0: 3fff b33d 7ec4 f23c 5281 593d 124c 9cbd
00000300: d094 87bd 62f6 29bd 32c5 95bc f738 c53d
00000310: 6b7d 83bb e8b4 95bd 9c06 6d3c fc43 15bd
00000320: 6d5f a4bd c79c 84bc 831b 0cbd fec9 fdbc
00000330: 079a 273d 4d25 86bc 1724 233d 5699 7d3c
00000340: 5ab5 a83b 1c5e 21bd f963 1cbd cd4b bcbc
00000350: 5276 033d 1c4c 40bc d13b b43c 7c9a d2bd
00000360: 693d 7e3c 497b 4c3c 079d 4c3d 05ac 28bd
00000370: 3ab5 89bc aba2 1fbd de07 1d3d aa5b 47bc
00000380: 88c9 1bbc 5e7c 7e3d 3938 02bc 6465 52bd
00000390: c35b 06bd b7eb 593d 8413 88bd bc04 0cbd
000003a0: 5b85 b3bc b80c 3dbd d4a2 1d3d 415d aa3d
000003b0: da6d fabb ca7e 993d bca8 c13c 67fd 88bc
000003c0: 5970 ba3d c014 5cbd ba53 25bd 6bdf 613d
000003d0: bd5b 8e3d 1804 4c3d 60e6 70bd 8450 c4bc
000003e0: c5ae 293c c1da c2bc b4f5 5cbd 7957 5c3d
000003f0: 88be a3bc 8bd3 a73a d603 68bd 756b 263d
-0.0047289687 -0.043205805 -0.067171276 0.029566895 -0.076470986 -0.09565525 -0.034952693 0.04500255
-0.018810254 0.048329942 0.063627735 0.05482369 -0.072055444 -0.041856457 0.089975715 0.020395402
-0.07414527 -0.036835734 -0.06462995 -0.060109943 -0.099679224 -0.011996807 0.006159617 0.05956725
0.0828506 -0.06524754 -0.031286035 -0.08033764 0.054877542 -0.044748757 -0.024396524 0.041125875
0.08360179 0.031356238 -0.046428848 0.008113136 -0.025678655 0.06324471 0.030074708 0.028784722
-0.042912688 0.040097985 -0.07314974 -0.02346004 0.01794146 -0.066135354 0.030357951 0.026111595
0.0732338 0.0038791143 -0.02592026 0.055439107 0.05715137 0.012515298 -0.014510301 0.0141583895
-0.01738352 -0.0244575 -0.009666736 -0.044753797 -0.018166117 -0.009205795 0.08289679 -0.075953044
-0.016905554 0.037433133 0.0004603321 0.022706935 0.028016398 -0.06883979 0.051885463 -0.032096017
0.023019854 0.08384904 0.0030791648 0.054587122 0.024991361 -0.02925332 0.0043497086 0.06203031
-0.08244487 -0.039632298 0.011211317 0.01659224 0.07206119 -0.04228899 0.027458044 -0.04472961
-0.022390906 0.018287966 0.028059086 0.07719951 -0.022591377 -0.016749283 0.07531019 -0.039118465
-0.025450248 0.041086838 -0.06295043 -0.028648715 0.03632239 -0.00970042 0.02761598 0.024994295
-0.076184414 0.04400825 0.006222993 0.06685338 -0.004384602 -0.08855739 -0.064644046 -0.033522654
-0.020901421 0.0034188002 0.020528963 0.053698145 -0.027347203 -0.07059203 0.1379403 -0.02981103
0.02394964 0.0105117755 0.00036408566 -0.04914907 0.0036569138 -0.06327974 -0.018530928 -0.003594143
-0.042654872 0.022574944 -0.054549273 0.007370053 0.028133659 -0.05933167 -0.0174726 -0.065626994
-0.042728227 -0.032724045 -0.013312703 -0.0125482865 -0.05793696 -0.09517337 0.007213751 -0.05525302
-0.03756191 0.013385099 -0.032763224 0.10176988 -0.06804601 0.053491153 0.08850148 0.007501267
-0.022455497 -0.047060847 0.0471248 -0.002085019 -0.062267367 -0.021910451 -0.08314904 0.03974208
0.051955055 -0.039680753 0.06454367 -0.032850984 -0.054202434 0.04777647 0.038142107 -0.002321697
0.009576345 0.0013409076 -0.011532888 -0.012945555 0.057118677 -0.025337929 -0.08012938 -0.0032113092
0.0005772213 -0.037673652 -0.03589502 0.04460647 -0.039263394 0.06327818 0.0063224914 -0.056251787
-0.034246907 0.020640448 0.005133994 -0.08312807 0.08788919 0.02963471 0.053101845 -0.07631697
-0.066201806 -0.041494735 -0.018282507 0.09630006 -0.0040127537 -0.07309896 0.014466908 -0.036441788
-0.080260135 -0.016188039 -0.034205925 -0.030980106 0.040918376 -0.016375208 0.03982934 0.015478453
0.005148572 -0.03939639 -0.03818128 -0.022985363 0.03209526 -0.011736896 0.022001179 -0.10283372
0.015517571 0.012480565 0.04995444 -0.041179676 -0.016810048 -0.03897349 0.03833758 -0.0121678505
-0.009508498 0.062130325 -0.007947975 -0.051366225 -0.032802355 0.05320331 -0.06644347 -0.034184203
-0.021914175 -0.046154708 0.038485363 0.08318568 -0.00764249 0.07494886 0.02364003 -0.016722394
0.0910346 -0.053730726 -0.04036305 0.05514471 0.069510914 0.04980859 -0.058813453 -0.023964174
0.01035661 -0.02378595 -0.05394526 0.053794358 -0.019988313 0.0012804134 -0.056644283 0.040629823

fc4.bias f4 [4]
00000000: 77c9 d33c c71c 993c 5fbd bc3a 425c 6bbd
0.025852902 0.01869048 0.0014399699 -0.05746103
